…
(32, 256, 256, 3) (32, 256, 256, 3)
/mnt/c/Users/removed/projects/restoration-gan-playground/gan_model_exp_04.1.1.py:126: UserWarning: FigureCanvasAgg is non-interactive, and thus cannot be shown
  plt.show()
(32, 256, 256, 3) (32, 256, 256, 3)
Model: "functional_16"
┏━━━━━━━━━━━━━━━━━━━━━━━━━━━━━━━┳━━━━━━━━━━━━━━━━━━━━━━━━━━━┳━━━━━━━━━━━━━━━━━┳━━━━━━━━━━━━━━━━━━━━━━━━━━━━┓
┃ Layer (type)                  ┃ Output Shape              ┃         Param # ┃ Connected to               ┃
┡━━━━━━━━━━━━━━━━━━━━━━━━━━━━━━━╇━━━━━━━━━━━━━━━━━━━━━━━━━━━╇━━━━━━━━━━━━━━━━━╇━━━━━━━━━━━━━━━━━━━━━━━━━━━━┩
│ input_layer (InputLayer)      │ (None, 256, 256, 3)       │               0 │ -                          │
├───────────────────────────────┼───────────────────────────┼─────────────────┼────────────────────────────┤
│ sequential (Sequential)       │ (None, 128, 128, 64)      │           1,728 │ input_layer[0][0]          │
├───────────────────────────────┼───────────────────────────┼─────────────────┼────────────────────────────┤
│ sequential_1 (Sequential)     │ (None, 64, 64, 128)       │          74,240 │ sequential[0][0]           │
├───────────────────────────────┼───────────────────────────┼─────────────────┼────────────────────────────┤
│ sequential_2 (Sequential)     │ (None, 32, 32, 128)       │         147,968 │ sequential_1[0][0]         │
├───────────────────────────────┼───────────────────────────┼─────────────────┼────────────────────────────┤
│ sequential_3 (Sequential)     │ (None, 16, 16, 256)       │         295,936 │ sequential_2[0][0]         │
├───────────────────────────────┼───────────────────────────┼─────────────────┼────────────────────────────┤
│ sequential_4 (Sequential)     │ (None, 8, 8, 256)         │         590,848 │ sequential_3[0][0]         │
├───────────────────────────────┼───────────────────────────┼─────────────────┼────────────────────────────┤
│ sequential_5 (Sequential)     │ (None, 4, 4, 512)         │       1,181,696 │ sequential_4[0][0]         │
├───────────────────────────────┼───────────────────────────┼─────────────────┼────────────────────────────┤
│ sequential_6 (Sequential)     │ (None, 2, 2, 512)         │       2,361,344 │ sequential_5[0][0]         │
├───────────────────────────────┼───────────────────────────┼─────────────────┼────────────────────────────┤
│ sequential_7 (Sequential)     │ (None, 1, 1, 512)         │       2,361,344 │ sequential_6[0][0]         │
├───────────────────────────────┼───────────────────────────┼─────────────────┼────────────────────────────┤
│ sequential_8 (Sequential)     │ (None, 2, 2, 512)         │       2,361,344 │ sequential_7[0][0]         │
├───────────────────────────────┼───────────────────────────┼─────────────────┼────────────────────────────┤
│ concatenate (Concatenate)     │ (None, 2, 2, 1024)        │               0 │ sequential_8[0][0],        │
│                               │                           │                 │ sequential_6[0][0]         │
├───────────────────────────────┼───────────────────────────┼─────────────────┼────────────────────────────┤
│ sequential_9 (Sequential)     │ (None, 4, 4, 512)         │       4,720,640 │ concatenate[0][0]          │
├───────────────────────────────┼───────────────────────────┼─────────────────┼────────────────────────────┤
│ concatenate_1 (Concatenate)   │ (None, 4, 4, 1024)        │               0 │ sequential_9[0][0],        │
│                               │                           │                 │ sequential_5[0][0]         │
├───────────────────────────────┼───────────────────────────┼─────────────────┼────────────────────────────┤
│ sequential_10 (Sequential)    │ (None, 8, 8, 256)         │       2,360,320 │ concatenate_1[0][0]        │
├───────────────────────────────┼───────────────────────────┼─────────────────┼────────────────────────────┤
│ concatenate_2 (Concatenate)   │ (None, 8, 8, 512)         │               0 │ sequential_10[0][0],       │
│                               │                           │                 │ sequential_4[0][0]         │
├───────────────────────────────┼───────────────────────────┼─────────────────┼────────────────────────────┤
│ sequential_11 (Sequential)    │ (None, 16, 16, 256)       │       1,180,672 │ concatenate_2[0][0]        │
├───────────────────────────────┼───────────────────────────┼─────────────────┼────────────────────────────┤
│ concatenate_3 (Concatenate)   │ (None, 16, 16, 512)       │               0 │ sequential_11[0][0],       │
│                               │                           │                 │ sequential_3[0][0]         │
├───────────────────────────────┼───────────────────────────┼─────────────────┼────────────────────────────┤
│ sequential_12 (Sequential)    │ (None, 32, 32, 128)       │         590,336 │ concatenate_3[0][0]        │
├───────────────────────────────┼───────────────────────────┼─────────────────┼────────────────────────────┤
│ concatenate_4 (Concatenate)   │ (None, 32, 32, 256)       │               0 │ sequential_12[0][0],       │
│                               │                           │                 │ sequential_2[0][0]         │
├───────────────────────────────┼───────────────────────────┼─────────────────┼────────────────────────────┤
│ sequential_13 (Sequential)    │ (None, 64, 64, 128)       │         295,424 │ concatenate_4[0][0]        │
├───────────────────────────────┼───────────────────────────┼─────────────────┼────────────────────────────┤
│ concatenate_5 (Concatenate)   │ (None, 64, 64, 256)       │               0 │ sequential_13[0][0],       │
│                               │                           │                 │ sequential_1[0][0]         │
├───────────────────────────────┼───────────────────────────┼─────────────────┼────────────────────────────┤
│ sequential_14 (Sequential)    │ (None, 128, 128, 64)      │         147,712 │ concatenate_5[0][0]        │
├───────────────────────────────┼───────────────────────────┼─────────────────┼────────────────────────────┤
│ concatenate_6 (Concatenate)   │ (None, 128, 128, 128)     │               0 │ sequential_14[0][0],       │
│                               │                           │                 │ sequential[0][0]           │
├───────────────────────────────┼───────────────────────────┼─────────────────┼────────────────────────────┤
│ sequential_15 (Sequential)    │ (None, 256, 256, 3)       │           9,603 │ concatenate_6[0][0]        │
└───────────────────────────────┴───────────────────────────┴─────────────────┴────────────────────────────┘
 Total params: 18,681,155 (71.26 MB)
 Trainable params: 18,672,835 (71.23 MB)
 Non-trainable params: 8,320 (32.50 KB)
Model: "functional_20"
┏━━━━━━━━━━━━━━━━━━━━━━━━━━━━━━━┳━━━━━━━━━━━━━━━━━━━━━━━━━━━┳━━━━━━━━━━━━━━━━━┳━━━━━━━━━━━━━━━━━━━━━━━━━━━━┓
┃ Layer (type)                  ┃ Output Shape              ┃         Param # ┃ Connected to               ┃
┡━━━━━━━━━━━━━━━━━━━━━━━━━━━━━━━╇━━━━━━━━━━━━━━━━━━━━━━━━━━━╇━━━━━━━━━━━━━━━━━╇━━━━━━━━━━━━━━━━━━━━━━━━━━━━┩
│ input_image (InputLayer)      │ (None, 256, 256, 3)       │               0 │ -                          │
├───────────────────────────────┼───────────────────────────┼─────────────────┼────────────────────────────┤
│ target_image (InputLayer)     │ (None, 256, 256, 3)       │               0 │ -                          │
├───────────────────────────────┼───────────────────────────┼─────────────────┼────────────────────────────┤
│ concatenate_7 (Concatenate)   │ (None, 256, 256, 6)       │               0 │ input_image[0][0],         │
│                               │                           │                 │ target_image[0][0]         │
├───────────────────────────────┼───────────────────────────┼─────────────────┼────────────────────────────┤
│ sequential_16 (Sequential)    │ (None, 128, 128, 64)      │           3,456 │ concatenate_7[0][0]        │
├───────────────────────────────┼───────────────────────────┼─────────────────┼────────────────────────────┤
│ sequential_17 (Sequential)    │ (None, 64, 64, 128)       │          74,240 │ sequential_16[0][0]        │
├───────────────────────────────┼───────────────────────────┼─────────────────┼────────────────────────────┤
│ sequential_18 (Sequential)    │ (None, 32, 32, 256)       │         295,936 │ sequential_17[0][0]        │
├───────────────────────────────┼───────────────────────────┼─────────────────┼────────────────────────────┤
│ zero_padding2d                │ (None, 34, 34, 256)       │               0 │ sequential_18[0][0]        │
│ (ZeroPadding2D)               │                           │                 │                            │
├───────────────────────────────┼───────────────────────────┼─────────────────┼────────────────────────────┤
│ conv2d_19 (Conv2D)            │ (None, 32, 32, 512)       │       1,179,648 │ zero_padding2d[0][0]       │
├───────────────────────────────┼───────────────────────────┼─────────────────┼────────────────────────────┤
│ batch_normalization_16        │ (None, 32, 32, 512)       │           2,048 │ conv2d_19[0][0]            │
│ (BatchNormalization)          │                           │                 │                            │
├───────────────────────────────┼───────────────────────────┼─────────────────┼────────────────────────────┤
│ leaky_re_lu_11 (LeakyReLU)    │ (None, 32, 32, 512)       │               0 │ batch_normalization_16[0]… │
├───────────────────────────────┼───────────────────────────┼─────────────────┼────────────────────────────┤
│ zero_padding2d_1              │ (None, 34, 34, 512)       │               0 │ leaky_re_lu_11[0][0]       │
│ (ZeroPadding2D)               │                           │                 │                            │
├───────────────────────────────┼───────────────────────────┼─────────────────┼────────────────────────────┤
│ conv2d_20 (Conv2D)            │ (None, 32, 32, 1)         │           4,609 │ zero_padding2d_1[0][0]     │
├───────────────────────────────┼───────────────────────────┼─────────────────┼────────────────────────────┤
│ flatten (Flatten)             │ (None, 1024)              │               0 │ conv2d_20[0][0]            │
├───────────────────────────────┼───────────────────────────┼─────────────────┼────────────────────────────┤
│ dense (Dense)                 │ (None, 1)                 │           1,025 │ flatten[0][0]              │
└───────────────────────────────┴───────────────────────────┴─────────────────┴────────────────────────────┘
 Total params: 1,560,962 (5.95 MB)
 Trainable params: 1,559,170 (5.95 MB)
 Non-trainable params: 1,792 (7.00 KB)
Epoch:  1
I0000 00:00:1776624599.360651    4946 cuda_dnn.cc:461] Loaded cuDNN version 92100
Time: 212.75733137130737 sec, gen loss = 294675.21875, disc loss = 6.963653087615967.
…
